…
Some weights of the model checkpoint at prajjwal1/bert-tiny were not used when initializing BertForMaskedLM: ['cls.seq_relationship.weight', 'cls.seq_relationship.bias']
- This IS expected if you are initializing BertForMaskedLM from the checkpoint of a model trained on another task or with another architecture (e.g. initializing a BertForSequenceClassification model from a BertForPreTraining model).
- This IS NOT expected if you are initializing BertForMaskedLM from the checkpoint of a model that you expect to be exactly identical (initializing a BertForSequenceClassification model from a BertForSequenceClassification model).
BertModel(
  (embeddings): BertEmbeddings(
    (word_embeddings): Embedding(30522, 128, padding_idx=0)
    (position_embeddings): Embedding(512, 128)
    (token_type_embeddings): Embedding(2, 128)
    (LayerNorm): LayerNorm((128,), eps=1e-12, elementwise_affine=True)
    (dropout): Dropout(p=0.1, inplace=False)
  )
  (encoder): BertEncoder(
    (layer): ModuleList(
      (0-1): 2 x BertLayer(
        (attention): BertAttention(
          (self): BertSelfAttention(
            (query): Linear(in_features=128, out_features=128, bias=True)
            (key): Linear(in_features=128, out_features=128, bias=True)
            (value): Linear(in_features=128, out_features=128, bias=True)
            (dropout): Dropout(p=0.1, inplace=False)
          )
          (output): BertSelfOutput(
            (dense): Linear(in_features=128, out_features=128, bias=True)
            (LayerNorm): LayerNorm((128,), eps=1e-12, elementwise_affine=True)
            (dropout): Dropout(p=0.1, inplace=False)
          )
        )
        (intermediate): BertIntermediate(
          (dense): Linear(in_features=128, out_features=512, bias=True)
        )
        (output): BertOutput(
          (dense): Linear(in_features=512, out_features=128, bias=True)
          (LayerNorm): LayerNorm((128,), eps=1e-12, elementwise_affine=True)
          (dropout): Dropout(p=0.1, inplace=False)
        )
      )
    )
  )
)
hello loading text data.
BertModel(
  (embeddings): BertEmbeddings(
    (word_embeddings): Embedding(30522, 128, padding_idx=0)
    (position_embeddings): Embedding(512, 128)
    (token_type_embeddings): Embedding(2, 128)
    (LayerNorm): LayerNorm((128,), eps=1e-12, elementwise_affine=True)
    (dropout): Dropout(p=0.1, inplace=False)
  )
  (encoder): BertEncoder(
    (layer): ModuleList(
      (0-1): 2 x BertLayer(
        (attention): BertAttention(
          (self): BertSelfAttention(
            (query): Linear(in_features=128, out_features=128, bias=True)
            (key): Linear(in_features=128, out_features=128, bias=True)
            (value): Linear(in_features=128, out_features=128, bias=True)
            (dropout): Dropout(p=0.1, inplace=False)
          )
          (output): BertSelfOutput(
            (dense): Linear(in_features=128, out_features=128, bias=True)
            (LayerNorm): LayerNorm((128,), eps=1e-12, elementwise_affine=True)
            (dropout): Dropout(p=0.1, inplace=False)
          )
        )
        (intermediate): BertIntermediate(
          (dense): Linear(in_features=128, out_features=512, bias=True)
        )
        (output): BertOutput(
          (dense): Linear(in_features=512, out_features=128, bias=True)
          (LayerNorm): LayerNorm((128,), eps=1e-12, elementwise_affine=True)
          (dropout): Dropout(p=0.1, inplace=False)
        )
      )
    )
  )
)
Namespace(attention_resolutions='16,8', batch_size=64, cache_mode='no', checkpoint_path='diffusion_models/diff_bert_pad_rand128_transformer_lr0.0001_0.0_2000_sqrt_Lsimple_h128_s2_d0.1_sd101_xstart_e2e', class_cond=False, commonGen_train='diffusion_lm/common-gen/commongen_dat
…
e, preprocessing_num_workers=1, rescale_learned_sigmas=True, rescale_timesteps=True, resume_checkpoint='', roc_train='../datasets/ROCstory', save_interval=50000, schedule_sampler='uniform', seed=101, sigma_small=False, timestep_respacing='', training_mode='bert', use_bert_tokenizer='no', use_checkpoint=False, use_fp16=False, use_kl=False, use_scale_shift_norm=True, vocab_size=11043, weight_decay=0.0, wiki_train='diffusion_lm/simple_wiki/data.v1.split/simple.training.txt', yelp_train='diffusion_lm/yelpnlg-resources/yelpnlg-corpus')
BertModel(
  (embeddings): BertEmbeddings(
    (word_embeddings): Embedding(30522, 128, padding_idx=0)
    (position_embeddings): Embedding(512, 128)
    (token_type_embeddings): Embedding(2, 128)
    (LayerNorm): LayerNorm((128,), eps=1e-12, elementwise_affine=True)
    (dropout): Dropout(p=0.1, inplace=False)
  )
  (encoder): BertEncoder(
    (layer): ModuleList(
      (0-1): 2 x BertLayer(
        (attention): BertAttention(
          (self): BertSelfAttention(
            (query): Linear(in_features=128, out_features=128, bias=True)
            (key): Linear(in_features=128, out_features=128, bias=True)
            (value): Linear(in_features=128, out_features=128, bias=True)
            (dropout): Dropout(p=0.1, inplace=False)
          )
          (output): BertSelfOutput(
            (dense): Linear(in_features=128, out_features=128, bias=True)
            (LayerNorm): LayerNorm((128,), eps=1e-12, elementwise_affine=True)
            (dropout): Dropout(p=0.1, inplace=False)
          )
        )
        (intermediate): BertIntermediate(
          (dense): Linear(in_features=128, out_features=512, bias=True)
        )
        (output): BertOutput(
          (dense): Linear(in_features=512, out_features=128, bias=True)
          (LayerNorm): LayerNorm((128,), eps=1e-12, elementwise_affine=True)
          (dropout): Dropout(p=0.1, inplace=False)
        )
      )
    )
  )
)
loading dataset from ROCStory
loading from ../datasets/ROCstory
loading form the TRAIN set
[[['brad', 'had', 'trained', 'for', 'the', 'sprint', '.', 'brad', 'was', 'nervous', '.', 'today', 'was', 'the', 'race', '.', 'brad', 'ran', 'the', 'race', '.', 'he', 'got', 'first', 'p
…
